…
n311\\Lib\\site-packages\\keras\\engine\\sequential.py:185, in Sequential.add(self, layer)\n    183         layer = functional.ModuleWrapper(layer)\n    184 else:\n--> 185     raise TypeError(\n    186         \"The added layer must be an instance of class Layer. \"\n    187         f\"Received: layer={layer} of type {type(layer)}.\"\n    188     )\n    190 tf_utils.assert_no_legacy_layers([layer])\n    191 if not self._is_layer_name_unique(layer):\n\nTypeError: The added layer must be an instance of class Layer. Received: layer=BertModel(\n  (embeddings): BertEmbeddings(\n    (word_embeddings): Embedding(31923, 768, padding_idx=0)\n    (position_embeddings): Embedding(512, 768)\n    (token_type_embeddings): Embedding(2, 768)\n    (LayerNorm): LayerNorm((768,), eps=1e-12, elementwise_affine=True)\n    (dropout): Dropout(p=0.1, inplace=False)\n  )\n  (encoder): BertEncoder(\n    (layer): ModuleList(\n      (0-11): 12 x BertLayer(\n        (attention): BertAttention(\n          (self): BertSelfAttention(\n            (query): Linear(in_features=768, out_features=768, bias=True)\n            (key): Linear(in_features=768, out_features=768, bias=True)\n            (value): Linear(in_features=768, out_features=768, bias=True)\n            (dropout): Dropout(p=0.1, inplace=False)\n          )\n          (output): BertSelfOutput(\n            (dense): Linear(in_features=768, out_features=768, bias=True)\n            (LayerNorm): LayerNorm((768,), eps=1e-12, elementwise_affine=True)\n            (dropout): Dropout(p=0.1, inplace=False)\n          )\n        )\n        (intermediate): BertIntermediate(\n          (dense): Linear(in_features=768, out_features=3072, bias=True)\n          (intermediate_act_fn): GELUActivation()\n        )\n        (output): BertOutput(\n          (dense): Linear(in_features=3072, out_features=768, bias=True)\n          (LayerNorm): LayerNorm((768,), eps=1e-12, elementwise_affine=True)\n          (dropout): Dropout(p=0.1, inplace=False)\n        )\n      )\n    )\n  )\n  (pooler): BertPooler(\n    (dense): Linear(in_features=768, out_features=768, bias=True)\n    (activation): Tanh()\n  )\n) of type <class 'transformers.models.bert.modeling_bert.BertModel'>.",
    "category": [
      "System Internals / Stack Traces"
    ],
    "is_sensitive": true
  },
  {
    "index": 186,
    "prompt_text": "E/AndroidRuntime: FATAL EXCEPTION: main\n    Process: com.example.myapp_2, PID: 4718\n    java.lang.RuntimeExcept
…
